…
/home/bastien/Bureau/DeepBach/DeepBach-master/DeepBach/models_zoo.py:36: UserWarning: Update your `Dense` call to the Keras 2 API: `Dense(input_dim=255, name="embedding_right", units=200)`
  output_dim=num_dense, name='embedding_right')
/home/bastien/Bureau/DeepBach/DeepBach-master/DeepBach/models_zoo.py:72: UserWarning: Update your `Model` call to the Keras 2 API: `Model(inputs=[<tf.Tenso..., outputs=Tensor("pi...)`
  output=pitch_prediction)
__________________________________________________________________________________________________
Layer (type)                    Output Shape         Param #     Connected to                     
==================================================================================================
left_features (InputLayer)      (None, 16, 233)      0                                            
__________________________________________________________________________________________________
left_metas (InputLayer)         (None, 16, 22)       0                                            
__________________________________________________________________________________________________
right_features (InputLayer)     (None, 16, 233)      0                                            
__________________________________________________________________________________________________
right_metas (InputLayer)        (None, 16, 22)       0                                            
__________________________________________________________________________________________________
concatenate_1 (Concatenate)     (None, 16, 255)      0           left_features[0][0]              
                                                                 left_metas[0][0]                 
__________________________________________________________________________________________________
central_features (InputLayer)   (None, 181)          0                                            
__________________________________________________________________________________________________
central_metas (InputLayer)      (None, 22)           0                                            
__________________________________________________________________________________________________
concatenate_2 (Concatenate)     (None, 16, 255)      0           right_features[0][0]             
                                                                 right_metas[0][0]                
__________________________________________________________________________________________________
time_distributed_1 (TimeDistrib (None, 16, 200)      51200       concatenate_1[0][0]              
__________________________________________________________________________________________________
concatenate_3 (Concatenate)     (None, 203)          0           central_features[0][0]           
                                                                 central_metas[0][0]              
__________________________________________________________________________________________________
time_distributed_2 (TimeDistrib (None, 16, 200)      51200       concatenate_2[0][0]              
__________________________________________________________________________________________________
lstm_left_0 (LSTM)              (None, 16, 200)      320800      time_distributed_1[0][0]         
__________________________________________________________________________________________________
dense_1 (Dense)                 (None, 200)          40800       concatenate_3[0][0]              
__________________________________________________________________________________________________
lstm_right_0 (LSTM)             (None, 16, 200)      320800      time_distributed_2[0][0]         
__________________________________________________________________________________________________
lstm_left_1 (LSTM)              (None, 200)          320800      lstm_left_0[0][0]                
__________________________________________________________________________________________________
dense_2 (Dense)                 (None, 200)          40200       dense_1[0][0]                    
__________________________________________________________________________________________________
lstm_right_1 (LSTM)             (None, 200)          320800      lstm_right_0[0][0]               
__________________________________________________________________________________________________
concatenate_4 (Concatenate)     (None, 600)          0           lstm_left_1[0][0]                
                                                                 dense_2[0][0]                    
                                                                 lstm_right_1[0][0]               
__________________________________________________________________________________________________
dense_3 (Dense)                 (None, 200)          120200      concatenate_4[0][0]              
__________________________________________________________________________________________________
pitch_prediction (Dense)        (None, 52)           10452       dense_3[0][0]                    
==================================================================================================
Total params: 1,597,252
Trainable params: 1,597,252
Non-trainable params: 0
__________________________________________________________________________________________________
2018-06-03 00:02:31.929530: I tensorflow/core/platform/cpu_feature_guard.cc:140] Your CPU supports instructions that this TensorFlow binary was not compiled to use: AVX2
model /home/bastien/Bureau/DeepBach/DeepBach-master/DeepBach/models/deepbach_model4_0 saved
__________________________________________________________________________________________________
Layer (type)                    Output Shape         Param #     Connected to                     
==================================================================================================
left_features (InputLayer)      (None, 16, 233)      0                                            
__________________________________________________________________________________________________
left_metas (InputLayer)         (None, 16, 22)       0                                            
__________________________________________________________________________________________________
right_features (InputLayer)     (None, 16, 233)      0                                            
__________________________________________________________________________________________________
right_metas (InputLayer)        (None, 16, 22)       0                                            
__________________________________________________________________________________________________
concatenate_5 (Concatenate)     (None, 16, 255)      0           left_features[0][0]              
                                                                 left_metas[0][0]                 
__________________________________________________________________________________________________
central_features (InputLayer)   (None, 179)          0                                            
__________________________________________________________________________________________________
central_metas (InputLayer)      (None, 22)           0                                            
__________________________________________________________________________________________________
concatenate_6 (Concatenate)     (None, 16, 255)      0           right_features[0][0]             
                                                                 right_metas[0][0]                
__________________________________________________________________________________________________
time_distributed_3 (TimeDistrib (None, 16, 200)      51200       concatenate_5[0][0]              
__________________________________________________________________________________________________
concatenate_7 (Concatenate)     (None, 201)          0           central_features[0][0]           
                                                                 central_metas[0][0]              
__________________________________________________________________________________________________
time_distributed_4 (TimeDistrib (None, 16, 200)      51200       concatenate_6[0][0]              
__________________________________________________________________________________________________
lstm_left_0 (LSTM)              (None, 16, 200)      320800      time_distributed_3[0][0]         
__________________________________________________________________________________________________
dense_4 (Dense)                 (None, 200)          40400       concatenate_7[0][0]              
__________________________________________________________________________________________________
lstm_right_0 (LSTM)             (None, 16, 200)      320800      time_distributed_4[0][0]         
__________________________________________________________________________________________________
lstm_left_1 (LSTM)              (None, 200)          320800      lstm_left_0[0][0]                
__________________________________________________________________________________________________
dense_5 (Dense)                 (None, 200)          40200       dense_4[0][0]                    
__________________________________________________________________________________________________
lstm_right_1 (LSTM)             (None, 200)          320800      lstm_right_0[0][0]               
__________________________________________________________________________________________________
concatenate_8 (Concatenate)     (None, 600)          0           lstm_left_1[0][0]                
                                                                 dense_5[0][0]                    
                                                                 lstm_right_1[0][0]               
__________________________________________________________________________________________________
dense_6 (Dense)                 (None, 200)          120200      concatenate_8[0][0]              
__________________________________________________________________________________________________
pitch_prediction (Dense)        (None, 54)           10854       dense_6[0][0]                    
==================================================================================================
Total params: 1,597,254
Trainable params: 1,597,254
Non-trainable params: 0
__________________________________________________________________________________________________
model /home/bastien/Bureau/DeepBach/DeepBach-master/DeepBach/models/deepbach_model4_1 saved
__________________________________________________________________________________________________
Layer (type)                    Output Shape         Param #     Connected to                     
==================================================================================================
left_features (InputLayer)      (None, 16, 233)      0                                            
__________________________________________________________________________________________________
left_metas (InputLayer)         (None, 16, 22)       0                                            
__________________________________________________________________________________________________
right_features (InputLayer)     (None, 16, 233)      0                                            
__________________________________________________________________________________________________
right_metas (InputLayer)        (None, 16, 22)       0                                            
__________________________________________________________________________________________________
concatenate_9 (Concatenate)     (None, 16, 255)      0           left_features[0][0]              
                                                                 left_metas[0][0]                 
__________________________________________________________________________________________________
central_features (InputLayer)   (None, 179)          0                                            
__________________________________________________________________________________________________
central_metas (InputLayer)      (None, 22)           0                                            
__________________________________________________________________________________________________
concatenate_10 (Concatenate)    (None, 16, 255)      0           right_features[0][0]             
                                                                 right_metas[0][0]                
__________________________________________________________________________________________________
time_distributed_5 (TimeDistrib (None, 16, 200)      51200       concatenate_9[0][0]              
__________________________________________________________________________________________________
concatenate_11 (Concatenate)    (None, 201)          0           central_features[0][0]           
                                                                 central_metas[0][0]              
__________________________________________________________________________________________________
time_distributed_6 (TimeDistrib (None, 16, 200)      51200       concatenate_10[0][0]             
__________________________________________________________________________________________________
lstm_left_0 (LSTM)              (None, 16, 200)      320800      time_distributed_5[0][0]         
__________________________________________________________________________________________________
dense_7 (Dense)                 (None, 200)          40400       concatenate_11[0][0]             
__________________________________________________________________________________________________
lstm_right_0 (LSTM)             (None, 16, 200)      320800      time_distributed_6[0][0]         
__________________________________________________________________________________________________
lstm_left_1 (LSTM)              (None, 200)          320800      lstm_left_0[0][0]                
__________________________________________________________________________________________________
dense_8 (Dense)                 (None, 200)          40200       dense_7[0][0]                    
__________________________________________________________________________________________________
lstm_right_1 (LSTM)             (None, 200)          320800      lstm_right_0[0][0]               
__________________________________________________________________________________________________
concatenate_12 (Concatenate)    (None, 600)          0           lstm_left_1[0][0]                
                                                                 dense_8[0][0]                    
                                                                 lstm_right_1[0][0]               
__________________________________________________________________________________________________
dense_9 (Dense)                 (None, 200)          120200      concatenate_12[0][0]             
__________________________________________________________________________________________________
pitch_prediction (Dense)        (None, 54)           10854       dense_9[0][0]                    
==================================================================================================
Total params: 1,597,254
Trainable params: 1,597,254
Non-trainable params: 0
__________________________________________________________________________________________________
model /home/bastien/Bureau/DeepBach/DeepBach-master/DeepBach/models/deepbach_model4_2 saved
__________________________________________________________________________________________________
Layer (type)                    Output Shape         Param #     Connected to                     
==================================================================================================
left_features (InputLayer)      (None, 16, 233)      0                                            
__________________________________________________________________________________________________
left_metas (InputLayer)         (None, 16, 22)       0                                            
__________________________________________________________________________________________________
right_features (InputLayer)     (None, 16, 233)      0                                            
__________________________________________________________________________________________________
right_metas (InputLayer)        (None, 16, 22)       0                                            
__________________________________________________________________________________________________
concatenate_13 (Concatenate)    (None, 16, 255)      0           left_features[0][0]              
                                                                 left_metas[0][0]                 
__________________________________________________________________________________________________
central_features (InputLayer)   (None, 160)          0                                            
__________________________________________________________________________________________________
central_metas (InputLayer)      (None, 22)           0                                            
__________________________________________________________________________________________________
concatenate_14 (Concatenate)    (None, 16, 255)      0           right_features[0][0]             
                                                                 right_metas[0][0]                
__________________________________________________________________________________________________
time_distributed_7 (TimeDistrib (None, 16, 200)      51200       concatenate_13[0][0]             
__________________________________________________________________________________________________
concatenate_15 (Concatenate)    (None, 182)          0           central_features[0][0]           
                                                                 central_metas[0][0]              
__________________________________________________________________________________________________
time_distributed_8 (TimeDistrib (None, 16, 200)      51200       concatenate_14[0][0]             
__________________________________________________________________________________________________
lstm_left_0 (LSTM)              (None, 16, 200)      320800      time_distributed_7[0][0]         
__________________________________________________________________________________________________
dense_10 (Dense)                (None, 200)          36600       concatenate_15[0][0]             
__________________________________________________________________________________________________
lstm_right_0 (LSTM)             (None, 16, 200)      320800      time_distributed_8[0][0]         
__________________________________________________________________________________________________
lstm_left_1 (LSTM)              (None, 200)          320800      lstm_left_0[0][0]                
__________________________________________________________________________________________________
dense_11 (Dense)                (None, 200)          40200       dense_10[0][0]                   
__________________________________________________________________________________________________
lstm_right_1 (LSTM)             (None, 200)          320800      lstm_right_0[0][0]               
__________________________________________________________________________________________________
concatenate_16 (Concatenate)    (None, 600)          0           lstm_left_1[0][0]                
                                                                 dense_11[0][0]                   
                                                                 lstm_right_1[0][0]               
__________________________________________________________________________________________________
dense_12 (Dense)                (None, 200)          120200      concatenate_16[0][0]             
__________________________________________________________________________________________________
pitch_prediction (Dense)        (None, 73)           14673       dense_12[0][0]                   
==================================================================================================
Total params: 1,597,273
Trainable params: 1,597,273
Non-trainable params: 0
__________________________________________________________________________________________________
model /home/bastien/Bureau/DeepBach/DeepBach-master/DeepBach/models/deepbach_model4_3 saved
…
